[2018-11-26 20:07:07,399 INFO] Loading train dataset from data/corpus.train.0.pt, number of examples: 999911
[2018-11-26 20:07:10,009 INFO]  * vocabulary size. source = 50002; target = 50004
[2018-11-26 20:07:10,011 INFO] Building model...
[2018-11-26 20:07:13,110 INFO] NMTModel(
  (encoder): RNNEncoder(
    (embeddings): Embeddings(
      (make_embedding): Sequential(
        (emb_luts): Elementwise(
          (0): Embedding(50002, 500, padding_idx=1)
        )
      )
    )
    (rnn): LSTM(500, 500, num_layers=2, dropout=0.3)
  )
  (decoder): InputFeedRNNDecoder(
    (embeddings): Embeddings(
      (make_embedding): Sequential(
        (emb_luts): Elementwise(
          (0): Embedding(50004, 500, padding_idx=1)
        )
      )
    )
    (dropout): Dropout(p=0.3)
    (rnn): StackedLSTM(
      (dropout): Dropout(p=0.3)
      (layers): ModuleList(
        (0): LSTMCell(1000, 500)
        (1): LSTMCell(500, 500)
      )
    )
    (attn): GlobalAttention(
      (linear_in): Linear(in_features=500, out_features=500, bias=False)
      (linear_out): Linear(in_features=1000, out_features=500, bias=False)
    )
  )
  (generator): Sequential(
    (0): Linear(in_features=500, out_features=50004, bias=True)
    (1): LogSoftmax()
  )
)
[2018-11-26 20:07:13,111 INFO] encoder: 29009000
[2018-11-26 20:07:13,111 INFO] decoder: 55812004
[2018-11-26 20:07:13,111 INFO] * number of parameters: 84821004
[2018-11-26 20:07:13,112 INFO] Starting training on GPU: [0]
[2018-11-26 20:07:13,112 INFO] Start training...
[2018-11-26 20:07:23,805 INFO] Loading train dataset from data/corpus.train.0.pt, number of examples: 999911
…
/opt/conda/lib/python3.6/site-packages/torch/nn/functional.py:1006: UserWarning: nn.functional.sigmoid is deprecated. Use torch.sigmoid instead.
  warnings.warn("nn.functional.sigmoid is deprecated. Use torch.sigmoid instead.")
./main.py:142: UserWarning: torch.nn.utils.clip_grad_norm is now deprecated in favor of torch.nn.utils.clip_grad_norm_.
  clip_grad_norm(net.parameters(), args.max_norm)
./main.py:82: UserWarning: invalid index of a 0-dim tensor. This will be an error in PyTorch 0.5. Use tensor.item() to convert a 0-dim tensor to a Python number
  total_loss += loss.data[0]
RNN_RNN(
  (abs_pos_embed): Embedding(100, 50)
  (rel_pos_embed): Embedding(10, 50)
  (embed): Embedding(153824, 100, padding_idx=0)
  (word_RNN): GRU(100, 200, batch_first=True, bidirectional=True)
  (sent_RNN): GRU(400, 200, batch_first=True, bidirectional=True)
  (fc): Linear(in_features=400, out_features=400, bias=True)
  (content): Linear(in_features=400, out_features=1, bias=False)
  (salience): Bilinear(in1_features=400, in2_features=400, out_features=1, bias=False)
  (novelty): Bilinear(in1_features=400, in2_features=400, out_features=1, bias=False)
  (abs_pos): Linear(in_features=50, out_features=1, bias=False)
  (rel_pos): Linear(in_features=50, out_features=1, bias=False)
)
#Params: 17.0M
Traceback (most recent call last):
  File "./main.py", line 222, in <module>
    train()
  File "./main.py", line 155, in train
    curve.close()
NameError: name 'curve' is not defined
[2018-11-30 05:27:52,586 INFO] Loading valid dataset from data/corpus.valid.1.pt, number of examples: 999890
[2018-11-30 05:40:59,208 INFO] Loading valid dataset from data/corpus.valid.2.pt, number of examples: 999944
…
